…
│                     │ (1, 1, 41, 14),   │            │                   │
│                     │ (1, 1, 44, 14),   │            │                   │
│                     │ (1, 1, 41, 14),   │            │                   │
│                     │ (1, 1, 44, 14),   │            │                   │
│                     │ (1, 1, 42, 14),   │            │                   │
│                     │ (1, 1, 43, 14),   │            │                   │
│                     │ (1, 1, 43, 14)]   │            │                   │
├─────────────────────┼───────────────────┼────────────┼───────────────────┤
│ dat_NMC_NC_NOTFIXE… │ (1, 1, 121)       │          0 │ DEUTERON_split[0… │
│ (DIS)               │                   │            │                   │
├─────────────────────┼───────────────────┼────────────┼───────────────────┤
│ dat_SLAC_NC_NOTFIX… │ (1, 1, 33)        │          0 │ DEUTERON_split[0… │
│ (DIS)               │                   │            │                   │
├─────────────────────┼───────────────────┼────────────┼───────────────────┤
│ dat_SLAC_NC_NOTFIX… │ (1, 1, 34)        │          0 │ DEUTERON_split[0… │
│ (DIS)               │                   │            │                   │
├─────────────────────┼───────────────────┼────────────┼───────────────────┤
│ dat_BCDMS_NC_NOTFI… │ (1, 1, 333)       │          0 │ DEUTERON_split[0… │
│ (DIS)               │                   │            │                   │
├─────────────────────┼───────────────────┼────────────┼───────────────────┤
│ dat_BCDMS_NC_NOTFI… │ (1, 1, 248)       │          0 │ DEUTERON_split[0… │
│ (DIS)               │                   │            │                   │
├─────────────────────┼───────────────────┼────────────┼───────────────────┤
│ dat_DYE866_Z0_800G… │ (1, 1, 15)        │          0 │ DEUTERON_split[0… │
│ (DY)                │                   │            │                   │
├─────────────────────┼───────────────────┼────────────┼───────────────────┤
│ dat_DYE906_Z0_120G… │ (1, 1, 6)         │          0 │ DEUTERON_split[0… │
│ (DY)                │                   │            │                   │
├─────────────────────┼───────────────────┼────────────┼───────────────────┤
│ dat_NMC_NC_NOTFIXE… │ (1, 1, 204)       │          0 │ splitter[0][1]    │
│ (DIS)               │                   │            │                   │
├─────────────────────┼───────────────────┼────────────┼───────────────────┤
│ dat_CHORUS_CC_NOTF… │ (1, 1, 416)       │          0 │ NUCLEAR_split[0]… │
│ (DIS)               │                   │            │                   │
├─────────────────────┼───────────────────┼────────────┼───────────────────┤
│ dat_CHORUS_CC_NOTF… │ (1, 1, 416)       │          0 │ NUCLEAR_split[0]… │
│ (DIS)               │                   │            │                   │
├─────────────────────┼───────────────────┼────────────┼───────────────────┤
│ dat_NUTEV_CC_NOTFI… │ (1, 1, 39)        │          0 │ NUCLEAR_split[0]… │
│ (DIS)               │                   │            │                   │
├─────────────────────┼───────────────────┼────────────┼───────────────────┤
│ dat_NUTEV_CC_NOTFI… │ (1, 1, 37)        │          0 │ NUCLEAR_split[0]… │
│ (DIS)               │                   │            │                   │
├─────────────────────┼───────────────────┼────────────┼───────────────────┤
│ dat_DYE605_Z0_38P8… │ (1, 1, 85)        │          0 │ NUCLEAR_split[0]… │
│ (DY)                │                   │            │                   │
├─────────────────────┼───────────────────┼────────────┼───────────────────┤
│ dat_HERA_NC_318GEV… │ (1, 1, 159)       │          0 │ HERACOMB_split[0… │
│ (DIS)               │                   │            │                   │
├─────────────────────┼───────────────────┼────────────┼───────────────────┤
│ dat_HERA_NC_225GEV… │ (1, 1, 204)       │          0 │ HERACOMB_split[0… │
│ (DIS)               │                   │            │                   │
├─────────────────────┼───────────────────┼────────────┼───────────────────┤
│ dat_HERA_NC_251GEV… │ (1, 1, 254)       │          0 │ HERACOMB_split[0… │
│ (DIS)               │                   │            │                   │
├─────────────────────┼───────────────────┼────────────┼───────────────────┤
│ dat_HERA_NC_300GEV… │ (1, 1, 70)        │          0 │ HERACOMB_split[0… │
│ (DIS)               │                   │            │                   │
├─────────────────────┼───────────────────┼────────────┼───────────────────┤
│ dat_HERA_NC_318GEV… │ (1, 1, 377)       │          0 │ HERACOMB_split[0… │
│ (DIS)               │                   │            │                   │
├─────────────────────┼───────────────────┼────────────┼───────────────────┤
│ dat_HERA_CC_318GEV… │ (1, 1, 42)        │          0 │ HERACOMB_split[0… │
│ (DIS)               │                   │            │                   │
├─────────────────────┼───────────────────┼────────────┼───────────────────┤
│ dat_HERA_CC_318GEV… │ (1, 1, 39)        │          0 │ HERACOMB_split[0… │
│ (DIS)               │                   │            │                   │
├─────────────────────┼───────────────────┼────────────┼───────────────────┤
│ dat_HERA_NC_318GEV… │ (1, 1, 37)        │          0 │ HERACOMB_split[0… │
│ (DIS)               │                   │            │                   │
├─────────────────────┼───────────────────┼────────────┼───────────────────┤
│ dat_HERA_NC_318GEV… │ (1, 1, 26)        │          0 │ HERACOMB_split[0… │
│ (DIS)               │                   │            │                   │
├─────────────────────┼───────────────────┼────────────┼───────────────────┤
│ dat_DYE866_Z0_800G… │ (1, 1, 88)        │          0 │ splitter[0][4]    │
│ (DY)                │                   │            │                   │
├─────────────────────┼───────────────────┼────────────┼───────────────────┤
│ dat_CDF_Z0_1P96TEV… │ (1, 1, 28)        │          0 │ splitter[0][1]    │
│ (DY)                │                   │            │                   │
├─────────────────────┼───────────────────┼────────────┼───────────────────┤
│ dat_D0_Z0_1P96TEV_… │ (1, 1, 28)        │          0 │ D0_split[0][0]    │
│ (DY)                │                   │            │                   │
├─────────────────────┼───────────────────┼────────────┼───────────────────┤
│ dat_D0_WPWM_1P96TE… │ (1, 1, 9)         │          0 │ D0_split[0][1]    │
│ (DY)                │                   │            │                   │
├─────────────────────┼───────────────────┼────────────┼───────────────────┤
│ dat_ATLAS_WPWM_7TE… │ (1, 1, 22)        │          0 │ ATLAS_split[0][0] │
│ (DY)                │                   │            │                   │
├─────────────────────┼───────────────────┼────────────┼───────────────────┤
│ dat_ATLAS_Z0_7TEV_… │ (1, 1, 8)         │          0 │ ATLAS_split[0][1] │
│ (DY)                │                   │            │                   │
├─────────────────────┼───────────────────┼────────────┼───────────────────┤
│ dat_ATLAS_Z0_7TEV_… │ (1, 1, 5)         │          0 │ ATLAS_split[0][2] │
│ (DY)                │                   │            │                   │
├─────────────────────┼───────────────────┼────────────┼───────────────────┤
│ dat_ATLAS_Z0_7TEV_… │ (1, 1, 6)         │          0 │ ATLAS_split[0][3] │
│ (DY)                │                   │            │                   │
├─────────────────────┼───────────────────┼────────────┼───────────────────┤
│ dat_ATLAS_WPWM_7TE… │ (1, 1, 22)        │          0 │ ATLAS_split[0][4] │
│ (DY)                │                   │            │                   │
├─────────────────────┼───────────────────┼────────────┼───────────────────┤
│ dat_ATLAS_Z0_7TEV_… │ (1, 1, 24)        │          0 │ ATLAS_split[0][5] │
│ (DY)                │                   │            │                   │
├─────────────────────┼───────────────────┼────────────┼───────────────────┤
│ dat_ATLAS_Z0_7TEV_… │ (1, 1, 15)        │          0 │ ATLAS_split[0][6] │
│ (DY)                │                   │            │                   │
├─────────────────────┼───────────────────┼────────────┼───────────────────┤
│ dat_ATLAS_Z0_8TEV_… │ (1, 1, 48)        │          0 │ ATLAS_split[0][7] │
│ (DY)                │                   │            │                   │
├─────────────────────┼───────────────────┼────────────┼───────────────────┤
│ dat_ATLAS_Z0_8TEV_… │ (1, 1, 60)        │          0 │ ATLAS_split[0][8] │
│ (DY)                │                   │            │                   │
├─────────────────────┼───────────────────┼────────────┼───────────────────┤
│ dat_ATLAS_Z0_13TEV… │ (1, 1, 1)         │          0 │ ATLAS_split[0][9] │
│ (DY)                │                   │            │                   │
├─────────────────────┼───────────────────┼────────────┼───────────────────┤
│ dat_ATLAS_WPWM_13T… │ (1, 1, 2)         │          0 │ ATLAS_split[0][1… │
│ (DY)                │                   │            │                   │
├─────────────────────┼───────────────────┼────────────┼───────────────────┤
│ dat_ATLAS_WJ_8TEV_… │ (1, 1, 15)        │          0 │ ATLAS_split[0][1… │
│ (DY)                │                   │            │                   │
├─────────────────────┼───────────────────┼────────────┼───────────────────┤
│ dat_ATLAS_WJ_8TEV_… │ (1, 1, 15)        │          0 │ ATLAS_split[0][1… │
│ (DY)                │                   │            │                   │
├─────────────────────┼───────────────────┼────────────┼───────────────────┤
│ dat_ATLAS_Z0J_8TEV… │ (1, 1, 44)        │          0 │ ATLAS_split[0][1… │
│ (DY)                │                   │            │                   │
├─────────────────────┼───────────────────┼────────────┼───────────────────┤
│ dat_ATLAS_Z0J_8TEV… │ (1, 1, 48)        │          0 │ ATLAS_split[0][1… │
│ (DY)                │                   │            │                   │
├─────────────────────┼───────────────────┼────────────┼───────────────────┤
│ dat_ATLAS_TTBAR_7T… │ (1, 1, 1)         │          0 │ ATLAS_split[0][1… │
│ (DY)                │                   │            │                   │
├─────────────────────┼───────────────────┼────────────┼───────────────────┤
│ dat_ATLAS_TTBAR_8T… │ (1, 1, 1)         │          0 │ ATLAS_split[0][1… │
│ (DY)                │                   │            │                   │
├─────────────────────┼───────────────────┼────────────┼───────────────────┤
│ dat_ATLAS_TTBAR_13… │ (1, 1, 1)         │          0 │ ATLAS_split[0][1… │
│ (DY)                │                   │            │                   │
├─────────────────────┼───────────────────┼────────────┼───────────────────┤
│ dat_ATLAS_TTBAR_8T… │ (1, 1, 4)         │          0 │ ATLAS_split[0][1… │
│ (DY)                │                   │            │                   │
├─────────────────────┼───────────────────┼────────────┼───────────────────┤
│ dat_ATLAS_TTBAR_8T… │ (1, 1, 4)         │          0 │ ATLAS_split[0][1… │
│ (DY)                │                   │            │                   │
├─────────────────────┼───────────────────┼────────────┼───────────────────┤
│ dat_ATLAS_TTBAR_8T… │ (1, 1, 4)         │          0 │ ATLAS_split[0][2… │
│ (DY)                │                   │            │                   │
├─────────────────────┼───────────────────┼────────────┼───────────────────┤
│ dat_ATLAS_1JET_8TE… │ (1, 1, 171)       │          0 │ ATLAS_split[0][2… │
│ (DY)                │                   │            │                   │
├─────────────────────┼───────────────────┼────────────┼───────────────────┤
│ dat_ATLAS_2JET_7TE… │ (1, 1, 90)        │          0 │ ATLAS_split[0][2… │
│ (DY)                │                   │            │                   │
├─────────────────────┼───────────────────┼────────────┼───────────────────┤
│ dat_ATLAS_PH_13TEV… │ (1, 1, 53)        │          0 │ ATLAS_split[0][2… │
│ (DY)                │                   │            │                   │
├─────────────────────┼───────────────────┼────────────┼───────────────────┤
│ dat_ATLAS_SINGLETO… │ (1, 1, 1)         │          0 │ ATLAS_split[0][2… │
│ (DY)                │                   │            │                   │
├─────────────────────┼───────────────────┼────────────┼───────────────────┤
│ dat_ATLAS_SINGLETO… │ (1, 1, 1)         │          0 │ ATLAS_split[0][2… │
│ (DY)                │                   │            │                   │
├─────────────────────┼───────────────────┼────────────┼───────────────────┤
│ dat_ATLAS_SINGLETO… │ (1, 1, 3)         │          0 │ ATLAS_split[0][2… │
│ (DY)                │                   │            │                   │
├─────────────────────┼───────────────────┼────────────┼───────────────────┤
│ dat_ATLAS_SINGLETO… │ (1, 1, 3)         │          0 │ ATLAS_split[0][2… │
│ (DY)                │                   │            │                   │
├─────────────────────┼───────────────────┼────────────┼───────────────────┤
│ dat_ATLAS_SINGLETO… │ (1, 1, 3)         │          0 │ ATLAS_split[0][2… │
│ (DY)                │                   │            │                   │
├─────────────────────┼───────────────────┼────────────┼───────────────────┤
│ dat_ATLAS_SINGLETO… │ (1, 1, 3)         │          0 │ ATLAS_split[0][2… │
│ (DY)                │                   │            │                   │
├─────────────────────┼───────────────────┼────────────┼───────────────────┤
│ dat_CMS_WPWM_7TEV_… │ (1, 1, 11)        │          0 │ CMS_split[0][0]   │
│ (DY)                │                   │            │                   │
├─────────────────────┼───────────────────┼────────────┼───────────────────┤
│ dat_CMS_WPWM_7TEV_… │ (1, 1, 11)        │          0 │ CMS_split[0][1]   │
│ (DY)                │                   │            │                   │
├─────────────────────┼───────────────────┼────────────┼───────────────────┤
│ dat_CMS_Z0_7TEV_DI… │ (1, 1, 110)       │          0 │ CMS_split[0][2]   │
│ (DY)                │                   │            │                   │
├─────────────────────┼───────────────────┼────────────┼───────────────────┤
│ dat_CMS_WPWM_8TEV_… │ (1, 1, 22)        │          0 │ CMS_split[0][3]   │
│ (DY)                │                   │            │                   │
├─────────────────────┼───────────────────┼────────────┼───────────────────┤
│ dat_CMS_Z0J_8TEV_P… │ (1, 1, 28)        │          0 │ CMS_split[0][4]   │
│ (DY)                │                   │            │                   │
├─────────────────────┼───────────────────┼────────────┼───────────────────┤
│ dat_CMS_2JET_7TEV_… │ (1, 1, 54)        │          0 │ CMS_split[0][5]   │
│ (DY)                │                   │            │                   │
├─────────────────────┼───────────────────┼────────────┼───────────────────┤
│ dat_CMS_1JET_8TEV_… │ (1, 1, 185)       │          0 │ CMS_split[0][6]   │
│ (DY)                │                   │            │                   │
├─────────────────────┼───────────────────┼────────────┼───────────────────┤
│ dat_CMS_TTBAR_7TEV… │ (1, 1, 1)         │          0 │ CMS_split[0][7]   │
│ (DY)                │                   │            │                   │
├─────────────────────┼───────────────────┼────────────┼───────────────────┤
│ dat_CMS_TTBAR_8TEV… │ (1, 1, 1)         │          0 │ CMS_split[0][8]   │
│ (DY)                │                   │            │                   │
├─────────────────────┼───────────────────┼────────────┼───────────────────┤
│ dat_CMS_TTBAR_13TE… │ (1, 1, 1)         │          0 │ CMS_split[0][9]   │
│ (DY)                │                   │            │                   │
├─────────────────────┼───────────────────┼────────────┼───────────────────┤
│ dat_CMS_TTBAR_8TEV… │ (1, 1, 9)         │          0 │ CMS_split[0][10]  │
│ (DY)                │                   │            │                   │
├─────────────────────┼───────────────────┼────────────┼───────────────────┤
│ dat_CMS_TTBAR_5TEV… │ (1, 1, 1)         │          0 │ CMS_split[0][11]  │
│ (DY)                │                   │            │                   │
├─────────────────────┼───────────────────┼────────────┼───────────────────┤
│ dat_CMS_TTBAR_8TEV… │ (1, 1, 15)        │          0 │ CMS_split[0][12]  │
│ (DY)                │                   │            │                   │
├─────────────────────┼───────────────────┼────────────┼───────────────────┤
│ dat_CMS_TTBAR_13TE… │ (1, 1, 10)        │          0 │ CMS_split[0][13]  │
│ (DY)                │                   │            │                   │
├─────────────────────┼───────────────────┼────────────┼───────────────────┤
│ dat_CMS_TTBAR_13TE… │ (1, 1, 11)        │          0 │ CMS_split[0][14]  │
│ (DY)                │                   │            │                   │
├─────────────────────┼───────────────────┼────────────┼───────────────────┤
│ dat_CMS_SINGLETOP_… │ (1, 1, 1)         │          0 │ CMS_split[0][15]  │
│ (DY)                │                   │            │                   │
├─────────────────────┼───────────────────┼────────────┼───────────────────┤
│ dat_CMS_SINGLETOP_… │ (1, 1, 1)         │          0 │ CMS_split[0][16]  │
│ (DY)                │                   │            │                   │
├─────────────────────┼───────────────────┼────────────┼───────────────────┤
│ dat_CMS_SINGLETOP_… │ (1, 1, 1)         │          0 │ CMS_split[0][17]  │
│ (DY)                │                   │            │                   │
├─────────────────────┼───────────────────┼────────────┼───────────────────┤
│ dat_LHCB_Z0_7TEV_D… │ (1, 1, 9)         │          0 │ LHCb_split[0][0]  │
│ (DY)                │                   │            │                   │
├─────────────────────┼───────────────────┼────────────┼───────────────────┤
│ dat_LHCB_Z0_8TEV_D… │ (1, 1, 17)        │          0 │ LHCb_split[0][1]  │
│ (DY)                │                   │            │                   │
├─────────────────────┼───────────────────┼────────────┼───────────────────┤
│ dat_LHCB_WPWM_7TEV… │ (1, 1, 14)        │          0 │ LHCb_split[0][2]  │
│ (DY)                │                   │            │                   │
├─────────────────────┼───────────────────┼────────────┼───────────────────┤
│ dat_LHCB_Z0_7TEV_M… │ (1, 1, 15)        │          0 │ LHCb_split[0][3]  │
│ (DY)                │                   │            │                   │
├─────────────────────┼───────────────────┼────────────┼───────────────────┤
│ dat_LHCB_WPWM_8TEV… │ (1, 1, 14)        │          0 │ LHCb_split[0][4]  │
│ (DY)                │                   │            │                   │
├─────────────────────┼───────────────────┼────────────┼───────────────────┤
│ dat_LHCB_Z0_8TEV_M… │ (1, 1, 16)        │          0 │ LHCb_split[0][5]  │
│ (DY)                │                   │            │                   │
├─────────────────────┼───────────────────┼────────────┼───────────────────┤
│ dat_LHCB_Z0_13TEV_… │ (1, 1, 16)        │          0 │ LHCb_split[0][6]  │
│ (DY)                │                   │            │                   │
├─────────────────────┼───────────────────┼────────────┼───────────────────┤
│ dat_LHCB_Z0_13TEV_… │ (1, 1, 15)        │          0 │ LHCb_split[0][7]  │
│ (DY)                │                   │            │                   │
├─────────────────────┼───────────────────┼────────────┼───────────────────┤
│ dat_NNPDF_POS_2P24… │ (1, 1, 20)        │          0 │ splitter[0][9]    │
│ (DIS)               │                   │            │                   │
├─────────────────────┼───────────────────┼────────────┼───────────────────┤
│ dat_NNPDF_POS_2P24… │ (1, 1, 20)        │          0 │ splitter[0][9]    │
│ (DIS)               │                   │            │                   │
├─────────────────────┼───────────────────┼────────────┼───────────────────┤
│ dat_NNPDF_POS_2P24… │ (1, 1, 20)        │          0 │ splitter[0][9]    │
│ (DIS)               │                   │            │                   │
├─────────────────────┼───────────────────┼────────────┼───────────────────┤
│ dat_NNPDF_POS_2P24… │ (1, 1, 19)        │          0 │ splitter[0][9]    │
│ (DIS)               │                   │            │                   │
├─────────────────────┼───────────────────┼────────────┼───────────────────┤
│ dat_NNPDF_POS_2P24… │ (1, 1, 20)        │          0 │ splitter[0][9]    │
│ (DY)                │                   │            │                   │
├─────────────────────┼───────────────────┼────────────┼───────────────────┤
│ dat_NNPDF_POS_2P24… │ (1, 1, 20)        │          0 │ splitter[0][9]    │
│ (DY)                │                   │            │                   │
├─────────────────────┼───────────────────┼────────────┼───────────────────┤
│ dat_NNPDF_POS_2P24… │ (1, 1, 20)        │          0 │ splitter[0][9]    │
│ (DY)                │                   │            │                   │
├─────────────────────┼───────────────────┼────────────┼───────────────────┤
│ dat_NNPDF_POS_2P24… │ (1, 1, 17)        │          0 │ splitter[0][9]    │
│ (DIS)               │                   │            │                   │
├─────────────────────┼───────────────────┼────────────┼───────────────────┤
│ dat_NNPDF_POS_2P24… │ (1, 1, 10)        │          0 │ splitter[0][9]    │
│ (DIS)               │                   │            │                   │
├─────────────────────┼───────────────────┼────────────┼───────────────────┤
│ dat_NNPDF_POS_2P24… │ (1, 1, 10)        │          0 │ splitter[0][9]    │
│ (DIS)               │                   │            │                   │
├─────────────────────┼───────────────────┼────────────┼───────────────────┤
│ dat_NNPDF_POS_2P24… │ (1, 1, 10)        │          0 │ splitter[0][9]    │
│ (DIS)               │                   │            │                   │
├─────────────────────┼───────────────────┼────────────┼───────────────────┤
│ dat_NNPDF_POS_2P24… │ (1, 1, 10)        │          0 │ splitter[0][9]    │
│ (DIS)               │                   │            │                   │
├─────────────────────┼───────────────────┼────────────┼───────────────────┤
│ dat_NNPDF_POS_2P24… │ (1, 1, 10)        │          0 │ splitter[0][9]    │
│ (DIS)               │                   │            │                   │
├─────────────────────┼───────────────────┼────────────┼───────────────────┤
│ dat_NNPDF_POS_2P24… │ (1, 1, 10)        │          0 │ splitter[0][9]    │
│ (DIS)               │                   │            │                   │
├─────────────────────┼───────────────────┼────────────┼───────────────────┤
│ dat_NNPDF_POS_2P24… │ (1, 1, 10)        │          0 │ splitter[0][9]    │
│ (DIS)               │                   │            │                   │
├─────────────────────┼───────────────────┼────────────┼───────────────────┤
│ concatenate         │ (1, 1, 790)       │          0 │ dat_NMC_NC_NOTFI… │
│ (Concatenate)       │                   │            │ dat_SLAC_NC_NOTF… │
│                     │                   │            │ dat_SLAC_NC_NOTF… │
│                     │                   │            │ dat_BCDMS_NC_NOT… │
│                     │                   │            │ dat_BCDMS_NC_NOT… │
│                     │                   │            │ dat_DYE866_Z0_80… │
│                     │                   │            │ dat_DYE906_Z0_12… │
├─────────────────────┼───────────────────┼────────────┼───────────────────┤
│ concatenate_1       │ (1, 1, 204)       │          0 │ dat_NMC_NC_NOTFI… │
│ (Concatenate)       │                   │            │                   │
├─────────────────────┼───────────────────┼────────────┼───────────────────┤
│ concatenate_2       │ (1, 1, 993)       │          0 │ dat_CHORUS_CC_NO… │
│ (Concatenate)       │                   │            │ dat_CHORUS_CC_NO… │
│                     │                   │            │ dat_NUTEV_CC_NOT… │
│                     │                   │            │ dat_NUTEV_CC_NOT… │
│                     │                   │            │ dat_DYE605_Z0_38… │
├─────────────────────┼───────────────────┼────────────┼───────────────────┤
│ concatenate_3       │ (1, 1, 1208)      │          0 │ dat_HERA_NC_318G… │
│ (Concatenate)       │                   │            │ dat_HERA_NC_225G… │
│                     │                   │            │ dat_HERA_NC_251G… │
│                     │                   │            │ dat_HERA_NC_300G… │
│                     │                   │            │ dat_HERA_NC_318G… │
│                     │                   │            │ dat_HERA_CC_318G… │
│                     │                   │            │ dat_HERA_CC_318G… │
│                     │                   │            │ dat_HERA_NC_318G… │
│                     │                   │            │ dat_HERA_NC_318G… │
├─────────────────────┼───────────────────┼────────────┼───────────────────┤
│ concatenate_4       │ (1, 1, 88)        │          0 │ dat_DYE866_Z0_80… │
│ (Concatenate)       │                   │            │                   │
├─────────────────────┼───────────────────┼────────────┼───────────────────┤
│ concatenate_5       │ (1, 1, 28)        │          0 │ dat_CDF_Z0_1P96T… │
│ (Concatenate)       │                   │            │                   │
├─────────────────────┼───────────────────┼────────────┼───────────────────┤
│ concatenate_6       │ (1, 1, 37)        │          0 │ dat_D0_Z0_1P96TE… │
│ (Concatenate)       │                   │            │ dat_D0_WPWM_1P96… │
├─────────────────────┼───────────────────┼────────────┼───────────────────┤
│ concatenate_7       │ (1, 1, 678)       │          0 │ dat_ATLAS_WPWM_7… │
│ (Concatenate)       │                   │            │ dat_ATLAS_Z0_7TE… │
│                     │                   │            │ dat_ATLAS_Z0_7TE… │
│                     │                   │            │ dat_ATLAS_Z0_7TE… │
│                     │                   │            │ dat_ATLAS_WPWM_7… │
│                     │                   │            │ dat_ATLAS_Z0_7TE… │
…
│                     │                   │            │ dat_CMS_TTBAR_5T… │
│                     │                   │            │ dat_CMS_TTBAR_8T… │
│                     │                   │            │ dat_CMS_TTBAR_13… │
│                     │                   │            │ dat_CMS_TTBAR_13… │
│                     │                   │            │ dat_CMS_SINGLETO… │
│                     │                   │            │ dat_CMS_SINGLETO… │
│                     │                   │            │ dat_CMS_SINGLETO… │
├─────────────────────┼───────────────────┼────────────┼───────────────────┤
│ concatenate_9       │ (1, 1, 116)       │          0 │ dat_LHCB_Z0_7TEV… │
│ (Concatenate)       │                   │            │ dat_LHCB_Z0_8TEV… │
│                     │                   │            │ dat_LHCB_WPWM_7T… │
│                     │                   │            │ dat_LHCB_Z0_7TEV… │
│                     │                   │            │ dat_LHCB_WPWM_8T… │
│                     │                   │            │ dat_LHCB_Z0_8TEV… │
│                     │                   │            │ dat_LHCB_Z0_13TE… │
│                     │                   │            │ dat_LHCB_Z0_13TE… │
├─────────────────────┼───────────────────┼────────────┼───────────────────┤
│ concatenate_10      │ (1, 1, 20)        │          0 │ dat_NNPDF_POS_2P… │
│ (Concatenate)       │                   │            │                   │
├─────────────────────┼───────────────────┼────────────┼───────────────────┤
│ concatenate_11      │ (1, 1, 20)        │          0 │ dat_NNPDF_POS_2P… │
│ (Concatenate)       │                   │            │                   │
├─────────────────────┼───────────────────┼────────────┼───────────────────┤
│ concatenate_12      │ (1, 1, 20)        │          0 │ dat_NNPDF_POS_2P… │
│ (Concatenate)       │                   │            │                   │
├─────────────────────┼───────────────────┼────────────┼───────────────────┤
│ concatenate_13      │ (1, 1, 19)        │          0 │ dat_NNPDF_POS_2P… │
│ (Concatenate)       │                   │            │                   │
├─────────────────────┼───────────────────┼────────────┼───────────────────┤
│ concatenate_14      │ (1, 1, 20)        │          0 │ dat_NNPDF_POS_2P… │
│ (Concatenate)       │                   │            │                   │
├─────────────────────┼───────────────────┼────────────┼───────────────────┤
│ concatenate_15      │ (1, 1, 20)        │          0 │ dat_NNPDF_POS_2P… │
│ (Concatenate)       │                   │            │                   │
├─────────────────────┼───────────────────┼────────────┼───────────────────┤
│ concatenate_16      │ (1, 1, 20)        │          0 │ dat_NNPDF_POS_2P… │
│ (Concatenate)       │                   │            │                   │
├─────────────────────┼───────────────────┼────────────┼───────────────────┤
│ concatenate_17      │ (1, 1, 17)        │          0 │ dat_NNPDF_POS_2P… │
│ (Concatenate)       │                   │            │                   │
├─────────────────────┼───────────────────┼────────────┼───────────────────┤
│ concatenate_18      │ (1, 1, 10)        │          0 │ dat_NNPDF_POS_2P… │
│ (Concatenate)       │                   │            │                   │
├─────────────────────┼───────────────────┼────────────┼───────────────────┤
│ concatenate_19      │ (1, 1, 10)        │          0 │ dat_NNPDF_POS_2P… │
│ (Concatenate)       │                   │            │                   │
├─────────────────────┼───────────────────┼────────────┼───────────────────┤
│ concatenate_20      │ (1, 1, 10)        │          0 │ dat_NNPDF_POS_2P… │
│ (Concatenate)       │                   │            │                   │
├─────────────────────┼───────────────────┼────────────┼───────────────────┤
│ concatenate_21      │ (1, 1, 10)        │          0 │ dat_NNPDF_POS_2P… │
│ (Concatenate)       │                   │            │                   │
├─────────────────────┼───────────────────┼────────────┼───────────────────┤
│ concatenate_22      │ (1, 1, 10)        │          0 │ dat_NNPDF_POS_2P… │
│ (Concatenate)       │                   │            │                   │
├─────────────────────┼───────────────────┼────────────┼───────────────────┤
│ concatenate_23      │ (1, 1, 10)        │          0 │ dat_NNPDF_POS_2P… │
│ (Concatenate)       │                   │            │                   │
├─────────────────────┼───────────────────┼────────────┼───────────────────┤
│ concatenate_24      │ (1, 1, 10)        │          0 │ dat_NNPDF_POS_2P… │
│ (Concatenate)       │                   │            │                   │
├─────────────────────┼───────────────────┼────────────┼───────────────────┤
│ dat_NNPDF_INTEG_3G… │ (1, 1, 1)         │          0 │ splitter[0][10]   │
│ (DIS)               │                   │            │                   │
├─────────────────────┼───────────────────┼────────────┼───────────────────┤
│ dat_NNPDF_INTEG_3G… │ (1, 1, 1)         │          0 │ splitter[0][10]   │
│ (DIS)               │                   │            │                   │
├─────────────────────┼───────────────────┼────────────┼───────────────────┤
│ trmask_DEUTERON     │ (1, 1, 589)       │          0 │ concatenate[0][0] │
│ (Mask)              │                   │            │                   │
├─────────────────────┼───────────────────┼────────────┼───────────────────┤
│ trmask_NMC (Mask)   │ (1, 1, 153)       │          0 │ concatenate_1[0]… │
├─────────────────────┼───────────────────┼────────────┼───────────────────┤
│ trmask_NUCLEAR      │ (1, 1, 743)       │          0 │ concatenate_2[0]… │
│ (Mask)              │                   │            │                   │
├─────────────────────┼───────────────────┼────────────┼───────────────────┤
│ trmask_HERACOMB     │ (1, 1, 902)       │          0 │ concatenate_3[0]… │
│ (Mask)              │                   │            │                   │
├─────────────────────┼───────────────────┼────────────┼───────────────────┤
│ trmask_DYE886       │ (1, 1, 66)        │          0 │ concatenate_4[0]… │
│ (Mask)              │                   │            │                   │
├─────────────────────┼───────────────────┼────────────┼───────────────────┤
│ trmask_CDF (Mask)   │ (1, 1, 21)        │          0 │ concatenate_5[0]… │
├─────────────────────┼───────────────────┼────────────┼───────────────────┤
│ trmask_D0 (Mask)    │ (1, 1, 27)        │          0 │ concatenate_6[0]… │
├─────────────────────┼───────────────────┼────────────┼───────────────────┤
│ trmask_ATLAS (Mask) │ (1, 1, 504)       │          0 │ concatenate_7[0]… │
├─────────────────────┼───────────────────┼────────────┼───────────────────┤
│ trmask_CMS (Mask)   │ (1, 1, 352)       │          0 │ concatenate_8[0]… │
├─────────────────────┼───────────────────┼────────────┼───────────────────┤
│ trmask_LHCb (Mask)  │ (1, 1, 84)        │          0 │ concatenate_9[0]… │
├─────────────────────┼───────────────────┼────────────┼───────────────────┤
│ trmask_NNPDF_POS_2… │ (1, 1, 20)        │          0 │ concatenate_10[0… │
│ (Mask)              │                   │            │                   │
├─────────────────────┼───────────────────┼────────────┼───────────────────┤
│ trmask_NNPDF_POS_2… │ (1, 1, 20)        │          0 │ concatenate_11[0… │
│ (Mask)              │                   │            │                   │
├─────────────────────┼───────────────────┼────────────┼───────────────────┤
│ trmask_NNPDF_POS_2… │ (1, 1, 20)        │          0 │ concatenate_12[0… │
│ (Mask)              │                   │            │                   │
├─────────────────────┼───────────────────┼────────────┼───────────────────┤
│ trmask_NNPDF_POS_2… │ (1, 1, 19)        │          0 │ concatenate_13[0… │
│ (Mask)              │                   │            │                   │
├─────────────────────┼───────────────────┼────────────┼───────────────────┤
│ trmask_NNPDF_POS_2… │ (1, 1, 20)        │          0 │ concatenate_14[0… │
│ (Mask)              │                   │            │                   │
├─────────────────────┼───────────────────┼────────────┼───────────────────┤
│ trmask_NNPDF_POS_2… │ (1, 1, 20)        │          0 │ concatenate_15[0… │
│ (Mask)              │                   │            │                   │
├─────────────────────┼───────────────────┼────────────┼───────────────────┤
│ trmask_NNPDF_POS_2… │ (1, 1, 20)        │          0 │ concatenate_16[0… │
│ (Mask)              │                   │            │                   │
├─────────────────────┼───────────────────┼────────────┼───────────────────┤
│ trmask_NNPDF_POS_2… │ (1, 1, 17)        │          0 │ concatenate_17[0… │
│ (Mask)              │                   │            │                   │
├─────────────────────┼───────────────────┼────────────┼───────────────────┤
│ trmask_NNPDF_POS_2… │ (1, 1, 10)        │          0 │ concatenate_18[0… │
│ (Mask)              │                   │            │                   │
├─────────────────────┼───────────────────┼────────────┼───────────────────┤
│ trmask_NNPDF_POS_2… │ (1, 1, 10)        │          0 │ concatenate_19[0… │
│ (Mask)              │                   │            │                   │
├─────────────────────┼───────────────────┼────────────┼───────────────────┤
│ trmask_NNPDF_POS_2… │ (1, 1, 10)        │          0 │ concatenate_20[0… │
│ (Mask)              │                   │            │                   │
├─────────────────────┼───────────────────┼────────────┼───────────────────┤
│ trmask_NNPDF_POS_2… │ (1, 1, 10)        │          0 │ concatenate_21[0… │
│ (Mask)              │                   │            │                   │
├─────────────────────┼───────────────────┼────────────┼───────────────────┤
│ trmask_NNPDF_POS_2… │ (1, 1, 10)        │          0 │ concatenate_22[0… │
│ (Mask)              │                   │            │                   │
├─────────────────────┼───────────────────┼────────────┼───────────────────┤
│ trmask_NNPDF_POS_2… │ (1, 1, 10)        │          0 │ concatenate_23[0… │
│ (Mask)              │                   │            │                   │
├─────────────────────┼───────────────────┼────────────┼───────────────────┤
│ trmask_NNPDF_POS_2… │ (1, 1, 10)        │          0 │ concatenate_24[0… │
│ (Mask)              │                   │            │                   │
├─────────────────────┼───────────────────┼────────────┼───────────────────┤
│ concatenate_25      │ (1, 1, 1)         │          0 │ dat_NNPDF_INTEG_… │
│ (Concatenate)       │                   │            │                   │
├─────────────────────┼───────────────────┼────────────┼───────────────────┤
│ concatenate_26      │ (1, 1, 1)         │          0 │ dat_NNPDF_INTEG_… │
│ (Concatenate)       │                   │            │                   │
├─────────────────────┼───────────────────┼────────────┼───────────────────┤
│ DEUTERON            │ (1)               │    347,510 │ trmask_DEUTERON[… │
│ (LossInvcovmat)     │                   │            │                   │
├─────────────────────┼───────────────────┼────────────┼───────────────────┤
…
┏━━━━━━━━━━━━━━━━━━━━━┳━━━━━━━━━━━━━━━━━━━┳━━━━━━━━━━━━┳━━━━━━━━━━━━━━━━━━━┓
┃ Layer (type)        ┃ Output Shape      ┃    Param # ┃ Connected to      ┃
┡━━━━━━━━━━━━━━━━━━━━━╇━━━━━━━━━━━━━━━━━━━╇━━━━━━━━━━━━╇━━━━━━━━━━━━━━━━━━━┩
│ xgrid_integration   │ (1, None, 1)      │          0 │ -                 │
│ (InputLayer)        │                   │            │                   │
├─────────────────────┼───────────────────┼────────────┼───────────────────┤
│ x_divide (xDivide)  │ (1, None, 14)     │          0 │ xgrid_integratio… │
├─────────────────────┼───────────────────┼────────────┼───────────────────┤
│ pdf_xgrid_integrat… │ (1, 1, 2000, 14)  │          0 │ -                 │
│ (InputLayer)        │                   │            │                   │
├─────────────────────┼───────────────────┼────────────┼───────────────────┤
│ pdf_integrand       │ (1, 1, 2000, 14)  │          0 │ x_divide[0][0],   │
│ (Lambda)            │                   │            │ pdf_xgrid_integr… │
├─────────────────────┼───────────────────┼────────────┼───────────────────┤
│ x_integrator        │ (1, 1, 14)        │          0 │ pdf_integrand[0]… │
│ (xIntegrator)       │                   │            │                   │
├─────────────────────┼───────────────────┼────────────┼───────────────────┤
│ photon_integral     │ (1, 1, 1)         │          0 │ -                 │
│ (InputLayer)        │                   │            │                   │
├─────────────────────┼───────────────────┼────────────┼───────────────────┤
│ pdf_x (InputLayer)  │ (1, 1, None, 14)  │          0 │ -                 │
├─────────────────────┼───────────────────┼────────────┼───────────────────┤
│ msr_weights         │ (1, 1, 14)        │          0 │ x_integrator[0][… │
│ (MSR_Normalization) │                   │            │ photon_integral[… │
├─────────────────────┼───────────────────┼────────────┼───────────────────┤
│ pdf_normalized      │ (1, 1, None, 14)  │          0 │ pdf_x[0][0],      │
│ (Lambda)            │                   │            │ msr_weights[0][0] │
└─────────────────────┴───────────────────┴────────────┴───────────────────┘
…
